…
', 'dataset': 'Video_Games', 'device': device(type='cuda'), 'use_ddp': False, 'accelerator': <accelerate.accelerator.Accelerator object at 0x7f32caab5a30>}
Tue 18 Nov 2025 17:07:13 INFO  [TOKENIZER] Loading sentence embeddings from ../datasets/Video_Games/sentence-t5-base.sent_emb...
Tue 18 Nov 2025 17:07:14 INFO  [TOKENIZER] Sentence embeddings shape: (25612, 128)
Tue 18 Nov 2025 17:07:14 INFO  [TOKENIZER] Sentence embeddings shape after filtering: (25527, 128)
Tue 18 Nov 2025 17:07:14 INFO  RQVAEModel(
  (encoder): MLP(
    (mlp): Sequential(
      (0): Dropout(p=0.0, inplace=False)
      (1): Linear(in_features=128, out_features=2048, bias=True)
      (2): ReLU()
      (3): Dropout(p=0.0, inplace=False)
      (4): Linear(in_features=2048, out_features=1024, bias=True)
      (5): ReLU()
      (6): Dropout(p=0.0, inplace=False)
      (7): Linear(in_features=1024, out_features=512, bias=True)
      (8): ReLU()
      (9): Dropout(p=0.0, inplace=False)
      (10): Linear(in_features=512, out_features=256, bias=True)
      (11): ReLU()
      (12): Dropout(p=0.0, inplace=False)
      (13): Linear(in_features=256, out_features=128, bias=True)
    )
  )
  (quantization_layer): RQLayer(
    (quantization_layers): ModuleList(
      (0-2): 3 x EMAVQLayer()
    )
  )
  (decoder): MLP(
    (mlp): Sequential(
      (0): Dropout(p=0.0, inplace=False)
      (1): Linear(in_features=128, out_features=256, bias=True)
      (2): ReLU()
      (3): Dropout(p=0.0, inplace=False)
      (4): Linear(in_features=256, out_features=512, bias=True)
      (5): ReLU()
      (6): Dropout(p=0.0, inplace=False)
      (7): Linear(in_features=512, out_features=1024, bias=True)
      (8): ReLU()
      (9): Dropout(p=0.0, inplace=False)
      (10): Linear(in_features=1024, out_features=2048, bias=True)
      (11): ReLU()
      (12): Dropout(p=0.0, inplace=False)
      (13): Linear(in_features=2048, out_features=128, bias=True)
    )
  )
)
Tue 18 Nov 2025 18:04:22 INFO  [TOKENIZER] training
	Epoch [9900/10000]
	  Training lr: [0.001]
	  Training loss: 0.49430423745742214
	  Unused codebook:63.30769230769231
	  Recosntruction loss: 0.2726002037525177
	  Quantization loss: 0.22170402797368857
	  Collision Rate: 0.06330551964586516

Tue 18 Nov 2025 18:04:22 INFO  [TOKENIZER] training
…
