…
usical_Instruments', 'device': device(type='cuda'), 'use_ddp': False, 'accelerator': <accelerate.accelerator.Accelerator object at 0x7f701d3c45e0>}
Tue 18 Nov 2025 15:18:00 INFO  [TOKENIZER] Loading sentence embeddings from ../datasets/Musical_Instruments/sentence-t5-base.sent_emb...
Tue 18 Nov 2025 15:18:00 INFO  [TOKENIZER] Sentence embeddings shape: (24587, 128)
Tue 18 Nov 2025 15:18:01 INFO  [TOKENIZER] Sentence embeddings shape after filtering: (24556, 128)
Tue 18 Nov 2025 15:18:01 INFO  RQVAEModel(
  (encoder): MLP(
    (mlp): Sequential(
      (0): Dropout(p=0.0, inplace=False)
      (1): Linear(in_features=128, out_features=2048, bias=True)
      (2): ReLU()
      (3): Dropout(p=0.0, inplace=False)
      (4): Linear(in_features=2048, out_features=1024, bias=True)
      (5): ReLU()
      (6): Dropout(p=0.0, inplace=False)
      (7): Linear(in_features=1024, out_features=512, bias=True)
      (8): ReLU()
      (9): Dropout(p=0.0, inplace=False)
      (10): Linear(in_features=512, out_features=256, bias=True)
      (11): ReLU()
      (12): Dropout(p=0.0, inplace=False)
      (13): Linear(in_features=256, out_features=128, bias=True)
    )
  )
  (quantization_layer): RQLayer(
    (quantization_layers): ModuleList(
      (0-2): 3 x EMAVQLayer()
    )
  )
  (decoder): MLP(
    (mlp): Sequential(
      (0): Dropout(p=0.0, inplace=False)
      (1): Linear(in_features=128, out_features=256, bias=True)
      (2): ReLU()
      (3): Dropout(p=0.0, inplace=False)
      (4): Linear(in_features=256, out_features=512, bias=True)
      (5): ReLU()
      (6): Dropout(p=0.0, inplace=False)
      (7): Linear(in_features=512, out_features=1024, bias=True)
      (8): ReLU()
      (9): Dropout(p=0.0, inplace=False)
      (10): Linear(in_features=1024, out_features=2048, bias=True)
      (11): ReLU()
      (12): Dropout(p=0.0, inplace=False)
      (13): Linear(in_features=2048, out_features=128, bias=True)
    )
  )
)
Tue 18 Nov 2025 16:15:15 INFO  [TOKENIZER] training
	Epoch [9900/10000]
	  Training lr: [0.001]
	  Training loss: 0.46424663811922073
	  Unused codebook:114.91666666666667
	  Recosntruction loss: 0.2726109226544698
	  Quantization loss: 0.1916357142229875
	  Collision Rate: 0.057745561166313734

Tue 18 Nov 2025 16:15:16 INFO  [TOKENIZER] training
…
