…
it/s]Batches:  92%|█████████▏| 47/51 [00:47<00:02,  1.44it/s]Batches:  94%|█████████▍| 48/51 [00:48<00:01,  1.63it/s]Batches:  96%|█████████▌| 49/51 [00:48<00:01,  1.83it/s]Batches:  98%|█████████▊| 50/51 [00:48<00:00,  2.10it/s]Batches: 100%|██████████| 51/51 [00:49<00:00,  2.65it/s]Batches: 100%|██████████| 51/51 [00:49<00:00,  1.04it/s]
INFO:root:[TOKENIZER] Sentence embeddings shape: (25848, 128)
INFO:root:[TOKENIZER] Sentence embeddings shape after filtering: (25754, 128)
INFO:root:RQVAEModel(
  (encoder): MLP(
    (mlp): Sequential(
      (0): Dropout(p=0.0, inplace=False)
      (1): Linear(in_features=128, out_features=2048, bias=True)
      (2): ReLU()
      (3): Dropout(p=0.0, inplace=False)
      (4): Linear(in_features=2048, out_features=1024, bias=True)
      (5): ReLU()
      (6): Dropout(p=0.0, inplace=False)
      (7): Linear(in_features=1024, out_features=512, bias=True)
      (8): ReLU()
      (9): Dropout(p=0.0, inplace=False)
      (10): Linear(in_features=512, out_features=256, bias=True)
      (11): ReLU()
      (12): Dropout(p=0.0, inplace=False)
      (13): Linear(in_features=256, out_features=128, bias=True)
    )
  )
  (quantization_layer): RQLayer(
    (quantization_layers): ModuleList(
      (0-2): 3 x EMAVQLayer()
    )
  )
  (decoder): MLP(
    (mlp): Sequential(
      (0): Dropout(p=0.0, inplace=False)
      (1): Linear(in_features=128, out_features=256, bias=True)
      (2): ReLU()
      (3): Dropout(p=0.0, inplace=False)
      (4): Linear(in_features=256, out_features=512, bias=True)
      (5): ReLU()
      (6): Dropout(p=0.0, inplace=False)
      (7): Linear(in_features=512, out_features=1024, bias=True)
      (8): ReLU()
      (9): Dropout(p=0.0, inplace=False)
      (10): Linear(in_features=1024, out_features=2048, bias=True)
      (11): ReLU()
      (12): Dropout(p=0.0, inplace=False)
      (13): Linear(in_features=2048, out_features=128, bias=True)
    )
  )
)
huggingface/tokenizers: The current process just got forked, after parallelism has already been used. Disabling parallelism to avoid deadlocks...
To disable this warning, you can either:
	- Avoid using `tokenizers` before the fork if possible
	- Explicitly set the environment variable TOKENIZERS_PARALLELISM=(true | false)
[TOKENIZER] Applying PCA to sentence embeddings...
…
