…
Tue 18 Nov 2025 16:26:22 INFO  [TOKENIZER] Encoding sentence embeddings...
Tue 18 Nov 2025 16:26:22 INFO  Use pytorch device_name: cuda:0
Tue 18 Nov 2025 16:26:22 INFO  Load pretrained SentenceTransformer: /home/hadoop-ba-dealrank/VSCodeProjects/oukesha_oukesha/github.com/RUCAIBox/MTGRec.git/huggingface.co/sentence-transformers/sentence-t5-base
Tue 18 Nov 2025 16:27:13 INFO  [TOKENIZER] Sentence embeddings shape: (25848, 128)
Tue 18 Nov 2025 16:27:14 INFO  [TOKENIZER] Sentence embeddings shape after filtering: (25754, 128)
Tue 18 Nov 2025 16:27:14 INFO  RQVAEModel(
  (encoder): MLP(
    (mlp): Sequential(
      (0): Dropout(p=0.0, inplace=False)
      (1): Linear(in_features=128, out_features=2048, bias=True)
      (2): ReLU()
      (3): Dropout(p=0.0, inplace=False)
      (4): Linear(in_features=2048, out_features=1024, bias=True)
      (5): ReLU()
      (6): Dropout(p=0.0, inplace=False)
      (7): Linear(in_features=1024, out_features=512, bias=True)
      (8): ReLU()
      (9): Dropout(p=0.0, inplace=False)
      (10): Linear(in_features=512, out_features=256, bias=True)
      (11): ReLU()
      (12): Dropout(p=0.0, inplace=False)
      (13): Linear(in_features=256, out_features=128, bias=True)
    )
  )
  (quantization_layer): RQLayer(
    (quantization_layers): ModuleList(
      (0-2): 3 x EMAVQLayer()
    )
  )
  (decoder): MLP(
    (mlp): Sequential(
      (0): Dropout(p=0.0, inplace=False)
      (1): Linear(in_features=128, out_features=256, bias=True)
      (2): ReLU()
      (3): Dropout(p=0.0, inplace=False)
      (4): Linear(in_features=256, out_features=512, bias=True)
      (5): ReLU()
      (6): Dropout(p=0.0, inplace=False)
      (7): Linear(in_features=512, out_features=1024, bias=True)
      (8): ReLU()
      (9): Dropout(p=0.0, inplace=False)
      (10): Linear(in_features=1024, out_features=2048, bias=True)
      (11): ReLU()
      (12): Dropout(p=0.0, inplace=False)
      (13): Linear(in_features=2048, out_features=128, bias=True)
    )
  )
)
Tue 18 Nov 2025 17:05:12 INFO  [TOKENIZER] training
	Epoch [9900/10000]
	  Training lr: [0.001]
	  Training loss: 0.48889300456413853
	  Unused codebook:82.38461538461539
	  Recosntruction loss: 0.2716315984725952
	  Quantization loss: 0.21726140609154335
	  Collision Rate: 0.07637648520618157

Tue 18 Nov 2025 17:05:13 INFO  [TOKENIZER] training
…
